data_agent/scorer_weights_v7.pt (torch, 83763 bytes, 10 tensors)

0.weight f4 [128, 14]
0	0x3de56f3c	0.11202857
1	0xbe4ae374	-0.19813329
2	0xbceca6b1	-0.028888078
3	0x3d96146a	0.073281124
4	0xbad7a9d2	-0.0016453809
5	0x3d61d566	0.055135153
6	0x3d98932c	0.07449946
7	0x3dae1318	0.084997356
8	0x3d8f883c	0.070084065
9	0x3d80b6a2	0.062848344
10	0x3db1f4d0	0.086892724
11	0x3d8e9cf5	0.06963531
12	0x3cc35b33	0.023847198
13	0x3df23994	0.118273884
14	0xbd97d8b1	-0.074143775
15	0x3e9e0744	0.30864918
16	0x3de8a17a	0.11358924
17	0xbc0084b4	-0.007844139
18	0xbb683a26	-0.003543505
19	0xbd0e919d	-0.034806836
20	0xbc9bd257	-0.019021196
21	0xbcc31d57	-0.023817701
22	0xbe16d7dc	-0.14730781
23	0x3ce52e9e	0.02797633
24	0xbcd554f6	-0.02604149
25	0xbc31a2bb	-0.010842021
26	0xbdb54578	-0.08851141
27	0xbe735e0b	-0.23766343
28	0x3dcc46c5	0.09974436
29	0xbe731325	-0.23737772
30	0xbd7834ba	-0.06059716
31	0x3d5cda2b	0.053919
32	0xbb637233	-0.003470552
33	0x3d3392f9	0.043841336
34	0x3d716983	0.058938514
35	0x3d88720f	0.0666238
36	0x3dbdfc4e	0.09276639
37	0x3d2c581a	0.042076208
38	0x3d8c5ca3	0.068536066
39	0x3d523132	0.051316448
40	0x3d33bc78	0.04388091
41	0x3e24c48e	0.16090605
42	0xbdc3f467	-0.095681004
43	0x3e7d7058	0.24749887
44	0x3d81f5c3	0.063457035
45	0xbd45a60f	-0.04825407
46	0x3b85ab12	0.004079231
47	0xbd16d66e	-0.03682559
48	0xbd598bfd	-0.05311202
49	0xbd82806e	-0.06372152
50	0xbdc85675	-0.09782115
51	0xbd17916b	-0.037003916
52	0xbd8a6c97	-0.06758993
53	0xbd4a6d6c	-0.04942076
54	0xbd3b199b	-0.045678716
55	0xbe2eea86	-0.17081651
56	0xbd94a0e0	-0.07257247
57	0x3ea37ad2	0.31929642
58	0x3df1f696	0.11814611
59	0xbbf4b79c	-0.007468177
60	0xbb841fcc	-0.004032111
61	0xbd18d9bd	-0.037317026
62	0xbc8a02e6	-0.016847085
63	0xbcddeac8	-0.027089491
64	0xbe189e02	-0.14904025
65	0x3cc978b4	0.024593689
66	0xbcd7a97c	-0.026325934
67	0xbc0b9580	-0.00851953
68	0xbdbe12e3	-0.09280946
69	0xbe755142	-0.23956779
70	0x3dae70f9	0.085176416
71	0xbe85648c	-0.26053274
72	0xbd8c770b	-0.06858643
73	0x3d11f17b	0.035630684
74	0xbb8f1dd5	-0.00436757
75	0x3cc79e31	0.024367424
76	0x3d56ac4e	0.052410416
77	0x3d7b0739	0.061286185
78	0x3dcd08d7	0.10011452
79	0x3d10dab5	0.035364825
80	0x3d80705e	0.06271432
81	0x3d40b03b	0.047043066
82	0x3d3b09d6	0.045663677
83	0x3e40000c	0.18750018
84	0xbdc88a89	-0.097920485
85	0x3e77b0ec	0.24188584
86	0x3d78a1ea	0.06070129
87	0xbd4eb1f5	-0.05046268
88	0x3b5ccaae	0.0033690142
89	0xbd2828a7	-0.041054394
90	0xbd685a64	-0.05672683
91	0xbd878536	-0.06617205
92	0xbdc11b0c	-0.09428987
93	0xbd224756	-0.039618813
94	0xbd8ac2f1	-0.06775463
95	0xbd513663	-0.051077258
96	0xbd30ddeb	-0.043180387
97	0xbe2943d8	-0.16529787
98	0xbddc70be	-0.10763691
99	0x3e5b7528	0.2143141
100	0x3d2dfd34	0.0424778
101	0xbd867e0f	-0.065670125
102	0x3b4bd548	0.0031102467
103	0xbd4ffb9e	-0.05077707
104	0xbd88cbd2	-0.06679501
105	0xbd9d1ead	-0.076718666
106	0xbda5edd3	-0.08102002
107	0xbd505099	-0.050858114
108	0xbda17c66	-0.07885055
109	0xbd7f59c3	-0.062341463
110	0xbd065f7a	-0.032805897
111	0xbe0c2648	-0.13686478
112	0x3d933aa4	0.07188919
113	0xbea86624	-0.32890427
114	0xbe005678	-0.12532985
115	0x3c0049d0	0.007830098
116	0x3bb40fba	0.005495039
117	0x3d21c8ea	0.039498247
118	0x3c7bcfcb	0.015369366
119	0x3cc04aaf	0.023473112
120	0x3e1df2ab	0.15424602
121	0xbce7a7fb	-0.028278342
122	0x3ce05c9f	0.027387915
123	0x3c07e9e7	0.008295513
124	0x3dc19190	0.09451592
125	0x3e781521	0.2422681
126	0xbda29d06	-0.07940106
127	0x3e98ca4c	0.2984184
128	0x3dd5bc20	0.104362726
129	0xbca51343	-0.020150786
130	0xbb582c84	-0.0032985518
131	0xbd0326a3	-0.03201927
132	0xbcdc1841	-0.026867034
133	0xbd12289a	-0.035683252
134	0xbe09fc2f	-0.13475107
135	0x3ba12b42	0.004918487
136	0xbd1e5398	-0.03865394
137	0xbca81162	-0.020516101
138	0xbda20701	-0.07911492
139	0xbe62ee04	-0.22161108
140	0x3dab468b	0.083630644
141	0xbe816498	-0.2527206
142	0xbd7e2f3d	-0.06205677
143	0x3d0a1104	0.033707634
144	0xbbd2edf1	-0.006437056
145	0x3c8dd37d	0.01731276
146	0x3d53b92f	0.051690277
147	0x3d711d20	0.058865666
148	0x3dc88519	0.09791011
149	0x3ceac48c	0.028658174
150	0x3d794342	0.060855158
151	0x3d3d612d	0.046235252
152	0x3d324ef8	0.04353234
153	0x3e3f966c	0.18709725
154	0xbda5eaa9	-0.081013985
155	0x3e9431b5	0.28944173
156	0x3dc63a32	0.096790686
157	0xbcc97707	-0.02459289
158	0x3a942857	0.0011303526
159	0xbce24f92	-0.027625833
160	0xbd09554c	-0.03352861
161	0xbd2f3f9d	-0.042785276
162	0xbe012675	-0.12612326
163	0xbba93fe0	-0.005165085
164	0xbd38195b	-0.044946056
165	0xbce5800e	-0.028015163
166	0xbd8ef645	-0.06980566
167	0xbe571e62	-0.21007684
168	0x3d5443df	0.05182254
169	0x3e39c406	0.18141183
170	0x3e655ea4	0.22399384
171	0x3de2b154	0.11068979
172	0x3bb072c2	0.005384774
173	0xbd4383ad	-0.047732998
174	0x3e2a4689	0.1662847
175	0x3e338c2b	0.17533939
176	0xbdc63f1a	-0.096800044
177	0x3e30e3a2	0.17274335
178	0x3e3048a9	0.17215218
179	0x3e3294de	0.17439601
180	0xbd3bea54	-0.04587777
181	0xbe588a75	-0.21146567
182	0xbddf2fc2	-0.10897781
183	0x3e64b5c0	0.22334957
184	0x3d4b79fe	0.049676888
185	0xbd841944	-0.064501315
186	0x3b735ad8	0.0037133005
187	0xbd5a5a6a	-0.05330888
188	0xbd87329a	-0.06601448
189	0xbd9c05ac	-0.07618269
190	0xbda8870e	-0.08228885
191	0xbd58260b	-0.052770656
192	0xbd9f807e	-0.0778818
193	0xbd78225e	-0.06057965
194	0xbd134ec1	-0.035963777
195	0xbe11c980	-0.14237022
196	0x3debd800	0.11515808
197	0xbe60e6dc	-0.21963066
198	0xbd4392a0	-0.047747254
199	0x3d92dda2	0.07171179
200	0xbadc1f67	-0.0016794027
201	0x3d77a756	0.06046232
202	0x3d95b28b	0.07309445
203	0x3dab7fa4	0.08373955
204	0x3da5b399	0.08090896
205	0x3d773acc	0.060358807
206	0x3dab1422	0.083534494
207	0x3d895935	0.06706468
208	0x3d09ac88	0.033611804
209	0x3e08082e	0.1328437
210	0xbda999b5	-0.082812704
211	0x3e8bbcc9	0.2729247
212	0x3da4bde0	0.08044028
213	0xbd087786	-0.03331711
214	0x3b310416	0.0027010492
215	0xbcd18cce	-0.025579836
216	0xbd3a2d8b	-0.04545359
217	0xbd628ced	-0.05531018
218	0xbde0ba7c	-0.10973069
219	0xbcbf7cef	-0.023375003
220	0xbd63125c	-0.05543743
221	0xbd2032e9	-0.03911105
222	0xbd5df667	-0.054190066
223	0xbe4680bb	-0.19385044
224	0xbdc345b8	-0.09534782
225	0x3e80bb43	0.2514287
226	0x3d8a8e34	0.06765404
227	0xbd3efee8	-0.046629816
228	0x3b4353bf	0.0029804555
229	0xbd15eda6	-0.036603592
230	0xbd5dfe1b	-0.054197412
231	0xbd825715	-0.06364266
232	0xbdcb0c5e	-0.09914468
233	0xbd1495da	-0.036275722
234	0xbd82aadd	-0.06380246
235	0xbd441453	-0.047870945
236	0xbd43f1f6	-0.047838174
237	0xbe3149eb	-0.17313354
238	0x3d8a9b7b	0.06767937
239	0xbeafb564	-0.34318078
240	0xbe0898cd	-0.13339539
241	0xb8d05fe8	-9.936077e-05
242	0x3beecc40	0.007287532
243	0x3d26f5db	0.04076181
244	0x3c3f9b9e	0.011694817
245	0x3c9936da	0.018702913
246	0x3e231c9c	0.15928882
247	0xbd159fe0	-0.03652942
248	0x3c9fa679	0.01948856
249	0x3b8f7c62	0.0043788413
250	0x3dcb6a14	0.09932342
251	0x3e7dfc5b	0.24803297
252	0x3ded4815	0.11586014
253	0xbe5808ad	-0.2109706
254	0xbd183880	-0.037163258
255	0x3d9a18a9	0.07524235

0.bias f4 [128]
0	0x3db95a1c	0.0905039
1	0xbced3457	-0.028955622
2	0x3d963432	0.07334174
3	0xbd8f6348	-0.07001358
4	0xbcfaa18a	-0.030594606
5	0x3d89bd39	0.067255445
6	0xbd93fa29	-0.07225449
7	0xbda8f975	-0.08250705
8	0x3cef58bf	0.029217122
9	0xbd2cc269	-0.04217759
10	0x3d840a4a	0.06447275
11	0xbd45b894	-0.04827173
12	0x3e37bfe7	0.17944299
13	0xbda8a482	-0.082345024
14	0x3db45a06	0.08806233
15	0xbd7a5b56	-0.06112226
16	0xbd8e10b0	-0.06936777
17	0x3cbddb87	0.023175968
18	0x3dba089e	0.09083675
19	0x3dabd4c8	0.08390194
20	0xbd893d0a	-0.067010954
21	0x3c971951	0.018444689
22	0x3d91c016	0.071167156
23	0x3ced9682	0.029002432
24	0xbd89aa18	-0.06721896
25	0x3cd04abb	0.02542626
26	0xbd2b882b	-0.041877907
27	0xbd8a2458	-0.06745213
28	0x3cde00fa	0.027100075
29	0x3db3e29e	0.08783458
30	0x3d92eed0	0.07174456
31	0x3d8aa4f2	0.06769742
32	0x3c2b7fa0	0.01046744
33	0x3d4355f0	0.04768938
34	0x3d2c8198	0.042115778
35	0xbda6a11e	-0.081361994
36	0xbcd1da0b	-0.025616666
37	0xbd43e19d	-0.047822583
38	0x3c961a27	0.018323017
39	0x3da5e2a8	0.08099872
40	0xbcd88b43	-0.026433593
41	0xbd342600	-0.043981552
42	0xbd89b273	-0.067234896
43	0x3d8d5ecc	0.06902847
44	0x3ca94907	0.020664705
45	0xbd88ca31	-0.0667919
46	0xbd91335a	-0.07089873
47	0x3d88bcf4	0.06676665
48	0xbd6821eb	-0.05667297
49	0xbda446a2	-0.08021285
50	0xbda1b01c	-0.07894918
51	0xbd2c3dd4	-0.04205115
52	0x3d32679a	0.043555833
53	0xbd8b422d	-0.067997314
54	0x3d7f5c40	0.062343836
55	0xbd9f7eef	-0.077878825
56	0x3d8c4552	0.06849159
57	0x3d3fdd8a	0.046842135
58	0x3d8bac4a	0.06819971
59	0x3d8a1128	0.067415535
60	0xbda01f04	-0.07818416
61	0x3da2ee83	0.07955649
62	0xbd043586	-0.032277606
63	0xbce7d4ac	-0.028299652
64	0xbdbff65e	-0.09373163
65	0xbd6901d4	-0.05688651
66	0xbd43dfa1	-0.04782069
67	0xbd01dd45	-0.03170516
68	0xbe2445ba	-0.16042224
69	0x3e305e6a	0.17223516
70	0xbd975505	-0.07389263
71	0xbd9df4de	-0.0771272
72	0x3cd90727	0.026492668
73	0xbdafbbb5	-0.08580724
74	0xbd958138	-0.07300037
75	0x3dbc7b97	0.092032604
76	0xbda5502b	-0.080719315
77	0xbd1d101d	-0.038345445
78	0x3d9c24bd	0.07624195
79	0x3cfd8773	0.030948376
80	0x3d5ef055	0.054428417
81	0x3dbf12de	0.093297705
82	0x3db6fcdd	0.089349486
83	0x3cb257b7	0.021770341
84	0x3d155452	0.036457367
85	0x3d8dae02	0.06917955
86	0x3dac94e9	0.0842684
87	0xbcdc9de8	-0.026930764
88	0x3d36fdb4	0.044675544
89	0xbca77618	-0.020442054
90	0xbd8bdf70	-0.06829727
91	0xbd89f02e	-0.06735264
92	0x3d862059	0.065491386
93	0x3d83d59c	0.06437227
94	0xbcdefbee	-0.027219739
95	0x3d695169	0.056962404
96	0xbd269c03	-0.040676128
97	0xbd90fe11	-0.07079709
98	0xbcf3f605	-0.029780397
99	0x3d897af1	0.06712902
100	0xbd1c3b00	-0.038142204
101	0xbd8b53b9	-0.06803078
102	0xbdac99d5	-0.08427779
103	0x3dc53a4c	0.0963026
104	0xbdba6b6e	-0.09102522
105	0x3d578a62	0.052622207
106	0xbd383409	-0.0449715
107	0x3d3681c5	0.04455735
108	0xbda471ef	-0.080295436
109	0xbd895971	-0.06706513
110	0x3d8e3b11	0.0694486
111	0x3d8b8dd8	0.06814164
112	0x3d7c5e32	0.06161327
113	0xbd898c47	-0.06716209
114	0x3da856df	0.08219694
115	0xbd8a4203	-0.06750872
116	0x3dad3526	0.08457403
117	0x3db544aa	0.08850987
118	0xbd101384	-0.03517486
119	0x3d8d0ab3	0.06886806
120	0xbcc70e9c	-0.024298958
121	0xbd921bba	-0.07134195
122	0x3d93c41b	0.072151385
123	0xbd54cee2	-0.05195511
124	0x3d8b9617	0.06815737
125	0xbcc8589c	-0.024456315
126	0x3cc361e7	0.023850394
127	0xbd4f4925	-0.050606865

2.weight f4 [64, 128]
0	0xbe52e23b	-0.20594113
1	0x3e433fcd	0.19067307
2	0xbe85a210	-0.26100206
3	0x3e9939e0	0.29926968
4	0x3e484480	0.1955738
5	0xbee0a74d	-0.4387764
6	0x3e8c6ee4	0.27428353
7	0x3e6282cc	0.22120208
8	0xbe45fb9a	-0.1933426
9	0x3e70a1c1	0.23499204
10	0xbee2c25a	-0.44288903
11	0x3e86098d	0.26179162
12	0xbdd12a5c	-0.102131575
13	0x3e6b6781	0.22988702
14	0xbe60ace0	-0.21940947
15	0x3ebb03cd	0.36526337
16	0x3ea0f3af	0.31435916
17	0xbe33eec4	-0.1757155
18	0xbe58fad2	-0.2118943
19	0xbe5f371d	-0.21798368
20	0x3ede6be1	0.4344168
21	0xbe272a98	-0.16324842
22	0xbe92feb8	-0.2870996
23	0xbe447494	-0.19185096
24	0x3eb4bc8d	0.35300103
25	0xbe3b075b	-0.18264525
26	0x3e707193	0.23480825
27	0x3ea9d98a	0.33173782
28	0xbe3f54a9	-0.18684639
29	0xbe5e581d	-0.217133
30	0xbe93c4b0	-0.28860998
31	0xbea65b8e	-0.32491726
32	0xbe1767a0	-0.14785624
33	0xbe84e77c	-0.2595786
34	0xbe7041cf	-0.23462604
35	0x3e5f4e5c	0.21807235
36	0x3e3a2383	0.18177609
37	0x3e852950	0.2600808
38	0xbe29697d	-0.16544147
39	0xbe60ba3b	-0.21946041
40	0x3e3cf7d1	0.1845391
41	0x3e7ab182	0.24481776
42	0x3ee586a1	0.44829276
43	0xbeb45403	-0.35220346
44	0xbe2b1a91	-0.16709353
45	0x3ee1e31b	0.4411858
46	0x3e98f8f5	0.2987744
47	0xbebb8896	-0.36627644
48	0x3ea2ab5d	0.31771365
49	0x3e64a1ad	0.223273
50	0x3e6ce537	0.23134314
51	0x3e6e861b	0.23293345
52	0xbe758187	-0.23975192
53	0x3ed2181c	0.4103402
54	0xbed04058	-0.4067409
55	0x3e769983	0.24081998
56	0xbec3c407	-0.38235494
57	0xbe82a5e7	-0.25517198
58	0xbec30ab9	-0.38094118
59	0xbee4459f	-0.44584367
60	0x3e75e773	0.24014072
61	0xbe6fc127	-0.23413526
62	0x3e4cbca1	0.19993831
63	0x3e41bcd9	0.18919696
64	0x3e5387c4	0.20657259
65	0x3ea6ae0c	0.32554662
66	0x3e85422c	0.26027048
67	0x3e496db3	0.19670753
68	0x3df5a99d	0.11995242
69	0xbde5f743	-0.11228802
70	0x3e824f38	0.25451064
71	0x3e7208d9	0.23636188
72	0xbe3c0314	-0.18360549
73	0x3e5fd19c	0.21857303
74	0x3e8759b1	0.26435617
75	0xbe54a4d7	-0.20766006
76	0x3e6be23a	0.23035517
77	0x3e626a83	0.22110943
78	0xbe741fd8	-0.23840272
79	0xbe4a345e	-0.19746539
80	0xbe9ad203	-0.3023835
81	0xbe559fb2	-0.208617
82	0xbe54bce7	-0.20775186
83	0xbe2ec4e8	-0.17067301
84	0xbe5be7cd	-0.21475144
85	0xbeabb4a1	-0.33536246
86	0xbe65a5e6	-0.22426566
87	0x3e3e3180	0.1857357
88	0xbe7c5c85	-0.24644668
89	0x3e2e5e74	0.17028219
90	0x3eb6aa76	0.35676926
91	0x3edf9182	0.436657
92	0xbed95a64	-0.42451775
93	0xbece640a	-0.403107
94	0x3e4011dd	0.18756814
95	0xbea845f9	-0.32865885
96	0x3e6ca3e4	0.23109394
97	0x3e8a7377	0.27041218
98	0x3e462755	0.19350941
99	0xbede8ffd	-0.4346923
100	0x3e640977	0.22269236
101	0x3ed391c2	0.41322142
102	0x3e5a48ab	0.21316783
103	0xbe50930d	-0.20368595
104	0x3e5e85dc	0.21730751
105	0xbe92c782	-0.28667837
106	0x3e7c87af	0.24661134
107	0xbe7bbea5	-0.24584444
108	0x3e679191	0.22614123
109	0x3ecf973a	0.40545064
110	0xbe9c6b2f	-0.30550525
111	0xbeab1b6a	-0.33419353
112	0xbec7ff74	-0.39062083
113	0x3ee44875	0.4458653
114	0xbe64218f	-0.22278427
115	0x3ee373eb	0.44424376
116	0xbe5e1df3	-0.21691112
117	0xbe55bd6d	-0.20873041
118	0x3e57189a	0.21005479
119	0xbeb606fc	-0.35552204
120	0x3e3919c0	0.18076229
121	0x3e8d58ab	0.2760671
122	0xbe842e19	-0.2581642
123	0x3e8ff9c8	0.28120255
124	0xbec19f6d	-0.37816945
125	0x3e34d7e9	0.17660488
126	0xbe364f0e	-0.17803594
127	0x3e8ddbba	0.277067
128	0xbd2c2b07	-0.04203322
129	0x3efaaf6c	0.4896196
130	0xbe17ae5e	-0.1481261
131	0x3e33d831	0.17562939
132	0x3f005c30	0.50140667
133	0xbe6579ef	-0.22409795
134	0x3e21bc21	0.15794422
135	0x3dad9ee5	0.08477572
136	0xbf016c0d	-0.505555
137	0x3ee88c05	0.45419326
138	0xbe63b339	-0.22236337
139	0x3eb91065	0.3614532
140	0x3ebe9c06	0.3722841
141	0x3dc614e9	0.09671957
142	0xbd9886af	-0.07447564
143	0x3e8b7bb5	0.27242818
144	0x3e41e584	0.1893521
145	0xbf022d52	-0.50850403
146	0xbd63a304	-0.055575386
147	0xbda14131	-0.078737624
148	0x3e5846bd	0.21120735
149	0xbf024c68	-0.50897837
150	0xbe30bb82	-0.17259029
151	0xbf0344b6	-0.5127672
152	0x3e499440	0.19685459
153	0xbf02eb11	-0.5113993
154	0x3ef12857	0.4710109
155	0x3e3db8f7	0.1852759
156	0xbf010d9e	-0.50411403
157	0xbd875eb3	-0.06609859
158	0xbe2ff520	-0.17183352
159	0xbe407234	-0.18793565
160	0xbf0231a7	-0.50857013
161	0xbeb6890f	-0.35651442
162	0xbed462c4	-0.41481602
163	0x3da5a4c8	0.0808807
164	0x3f034de8	0.5129075
165	0x3ec1f22b	0.37880072
166	0xbf026d0d	-0.5094765
167	0xbdaa8ed0	-0.083280206
168	0x3f033722	0.51256
169	0x3edfcbbd	0.43710127
170	0x3e665f68	0.22497332
171	0xbe51ec3d	-0.20500274
172	0xbefde848	-0.4959128
173	0x3e6456c0	0.22298717
174	0x3e3d9d8d	0.18517132
175	0xbe4a2992	-0.1974242
176	0x3e9662d1	0.29372266
177	0x3db8d43e	0.09024857
178	0x3dcfb53e	0.10141991
179	0x3ee82c1a	0.45346147
180	0xbedbfd3a	-0.42966634
181	0x3e5ffe86	0.21874437
182	0xbe76a799	-0.24087371
183	0x3dfaa9f6	0.12239449
184	0xbe56eb7b	-0.20988266
185	0xbebe1b53	-0.37130222
186	0xbe5a09fb	-0.2129287
187	0xbe794b6c	-0.24345177
188	0x3df34add	0.118795134
189	0xbddabf95	-0.106810726
190	0x3f029317	0.5100569
191	0x3f00f6c3	0.5037653
192	0x3d28c510	0.04120356
193	0x3e92fef7	0.28710148
194	0x3ec665b9	0.38749483
195	0x3f0093a0	0.5022526
196	0xbe986a60	-0.29768658
197	0x3eaf8497	0.34280846
198	0x3e0e2ffa	0.13885489
199	0x3df05676	0.11735241
200	0xbf015d46	-0.5053295
201	0x3da071b2	0.07834186
202	0x3e1b03b4	0.15138131
203	0xbd32b1bc	-0.043626532
204	0x3ddbbc5e	0.107292876
205	0x3f065985	0.52480346
206	0xbdf37f1c	-0.118894786
207	0xbf00f427	-0.50372547
208	0xbe9eb7a4	-0.30999482
209	0xbd350477	-0.04419371
210	0xbd462d18	-0.04838285
211	0xbf02d1aa	-0.5110117
212	0xbf072bec	-0.52801394
213	0xbe4e607a	-0.2015399
214	0xbdb17065	-0.08664016
215	0x3f03a3ad	0.51421624
216	0xbed3f73f	-0.4139957
217	0x3f0440a8	0.5166116
218	0x3e4cc099	0.19995345
219	0x3e627013	0.22113065
220	0xbe835143	-0.25647935
221	0xbe86c00a	-0.2631839
222	0x3ef958c2	0.4870053
223	0xbe8df38d	-0.27724877
224	0x3ee28cd7	0.44248077
225	0x3e1c13f8	0.15241992
226	0x3f01ab73	0.50652236
227	0xbe62178f	-0.220793
228	0x3f0aa453	0.5415699
229	0x3e5fa9d3	0.21842127
230	0x3d81b652	0.06333603
231	0xbcd081dd	-0.025452549
232	0x3d6f9112	0.05848796
233	0xbea4fcc0	-0.32224083
234	0x3ecdf669	0.4022706
235	0xbec70c76	-0.38876694
236	0x3dbe7747	0.09300094
237	0x3e5aa725	0.21352823
238	0xbe3ac22f	-0.18238138
239	0xbe4227cc	-0.18960494
240	0xbe7b5e97	-0.24547802
241	0x3e6b7252	0.22992828
242	0xbdb427a5	-0.08796624
243	0x3e6a9651	0.22908904
244	0xbd97b452	-0.0740744
245	0xbd5d4491	-0.05402047
246	0x3f0694d6	0.52570856
247	0xbe523dfb	-0.20531456
248	0x3f03273d	0.5123175
249	0x3e2906b6	0.16506466
250	0xbe12f68e	-0.14351866
251	0x3eacab01	0.33724216
252	0xbe530a71	-0.20609452
253	0x3ef6b144	0.48182118
254	0xbf0176a7	-0.50571674
255	0x3eaec6cb	0.34136042

2.bias f4 [64]
0	0xbde7cfe1	-0.11318947
1	0x3e98e4a6	0.29861945
2	0xbdda76ce	-0.106671914
3	0x3dc1f9af	0.094714515
4	0x3dc5a613	0.09650817
5	0x3dd63923	0.10460117
6	0x3ddbd702	0.10734369
7	0xbdf8f7f3	-0.121566676
8	0xbdc924e7	-0.09821492
9	0x3dc6c71c	0.09705946
10	0xbdcd16c8	-0.10014111
11	0xbddb5ce4	-0.10711077
12	0xbdbb914e	-0.09158574
13	0x3e07b87b	0.13253967
14	0xbdcd2d58	-0.10018414
15	0xbdc47333	-0.09592285
16	0xbdc05281	-0.09390736
17	0xbddbc582	-0.10731031
18	0xbf021b0e	-0.5082253
19	0xbdb3ec1b	-0.08785268
20	0xbdc0c6ad	-0.094128944
21	0xbec40c6d	-0.3829073
22	0x3debca44	0.115131885
23	0xbdca6e76	-0.0988435
24	0x3ef9907f	0.48743054
25	0x3deaf37a	0.11472221
26	0xbdf03d25	-0.117304124
27	0x3dcf080c	0.10108957
28	0xbdb19eee	-0.086728916
29	0x3dd1b5f1	0.10239781
30	0x3de53258	0.11191243
31	0x3e098508	0.13429654
32	0x3dcd462a	0.10023148
33	0x3dd1f7aa	0.10252316
34	0xbe12e872	-0.14346483
35	0x3ddef955	0.108874
36	0xbdbcd26d	-0.09219823
37	0x3e1c5287	0.15265857
38	0x3e916ff9	0.2840574
39	0x3dce1863	0.10063245
40	0xbde9b146	-0.11410765
41	0x3dc06f84	0.0939627
42	0xbdd08729	-0.1018203
43	0x3de3fdc2	0.11132385
44	0xbdbf897a	-0.093523934
45	0x3e02311d	0.12714048
46	0x3df13b67	0.11778908
47	0x3f043ffe	0.51660144
48	0x3e12e0a3	0.14343505
49	0xbdc8b358	-0.09799832
50	0xbdd4ee8f	-0.10397064
51	0x3d79cfba	0.06098912
52	0x3dbdfcc9	0.092767306
53	0xbdfc2758	-0.12312192
54	0xbdde7fd3	-0.10864224
55	0xbdc5588d	-0.0963603
56	0xbdde475e	-0.10853456
57	0x3e192e0d	0.14958973
58	0xbec32621	-0.38115028
59	0x3dcac234	0.099003226
60	0xbe964403	-0.29348764
61	0x3dd91b2c	0.10600886
62	0x3e11257e	0.14174458
63	0xbe5424c4	-0.2071715

4.weight f4 [1, 64]
0	0xbe63d0d7	-0.22247635
1	0x3f6c7d7c	0.92378974
2	0xbe6ff5d1	-0.23433615
3	0x3e8437bf	0.2582378
4	0x3e8237c3	0.25433168
5	0x3e742ba4	0.23844773
6	0x3e6ed28e	0.23322508
7	0xbe547c65	-0.20750578
8	0xbe80714b	-0.25086436
9	0x3e818723	0.25298414
10	0xbe7cefbf	-0.24700831
11	0xbe6f2fb7	-0.23358046
12	0xbe875b65	-0.26436916
13	0x3e40479e	0.1877732
14	0xbe7d03e3	-0.24708514
15	0xbe82cad1	-0.25545362
16	0xbe84c713	-0.25933132
17	0xbe6eecda	-0.23332539
18	0xbf86b5a8	-1.0524187
19	0xbe8b3dd6	-0.27195615
20	0xbe848f38	-0.25890517
21	0xbf7d654f	-0.9898271
22	0x3e605d49	0.21910585
23	0xbe7f91e0	-0.2495799
24	0x3f86efbd	1.0541912
25	0x3e60d0c0	0.21954632
26	0xbe5c322c	-0.21503514
27	0x3e7af725	0.2450834
28	0xbe8c9dd8	-0.27464175
29	0x3e7896bb	0.24276249
30	0x3e65fb7c	0.22459215
31	0x3e3c8b35	0.18412478
32	0x3e7ce45a	0.24696484
33	0x3e784650	0.24245572
34	0xbe264332	-0.1623657
35	0x3e6bd626	0.2303091
36	0xbe86cb27	-0.26326868
37	0x3e0951dc	0.13410133
38	0x3f69510d	0.911393
39	0x3e7be9cb	0.24600904
40	0xbf415c60	-0.7553158
41	0x3e84e1f9	0.25953653
42	0xbe795101	-0.24347307
43	0x3e6727a3	0.22573714
44	0xbe855634	-0.2604233
45	0x3e4a8070	0.19775558
46	0x3e5b6353	0.21424608
47	0x3f852624	1.0402265
48	0x3e260891	0.16214205
49	0xbe809694	-0.25114882
50	0xbe750b5d	-0.23930116
51	0x3f20d704	0.6282809
52	0x3e863592	0.26212746
53	0xbe51cf5c	-0.20489258
54	0xbe6c1895	-0.23056252
55	0xbe8266e4	-0.25469124
56	0xbe6c9116	-0.23102221
57	0x3e128b24	0.1431089
58	0xbf7cdd42	-0.9877511
59	0x3e7f6501	0.24940874
60	0xbf6b59d4	-0.9193394
61	0x3e716ff7	0.23577867
62	0x3e2ad345	0.16682155
63	0xbf578d61	-0.842001

0.weight f4 [128, 8]
0	0x3d029cf6	0.03188797
1	0x3e8b035f	0.2715101
2	0x3de7669d	0.11298869
3	0x3da8116b	0.08206447
4	0x3e6dd745	0.2322665
5	0x3d455354	0.04817517
6	0xbdc989ee	-0.09840761
7	0x3e8058c3	0.2506772
8	0xbe124888	-0.14285481
9	0xbe54609a	-0.20739976
10	0xbf2ea9de	-0.68227947
11	0x3ecc37c7	0.39886305
12	0xbe3a12e4	-0.18171269
13	0xbe3322e9	-0.17493786
14	0xbe4db67f	-0.20089148
15	0xbef61475	-0.48062482
16	0xbe2e16ba	-0.17000857
17	0xbc678a2e	-0.014132066
18	0xbf1bb7d4	-0.60827374
19	0x3ea40e9e	0.32042402
20	0xbe1a78ef	-0.15085195
21	0xbe5a15e4	-0.21297413
22	0xbe693cf5	-0.2277716
23	0xbf2c2ba1	-0.6725407
24	0x3dc45761	0.09586979
25	0x3d7c4b1b	0.061595064
26	0xbf3994bd	-0.7249258
27	0x3ed7d685	0.42155853
28	0x3d2ef4c9	0.042713914
29	0x3db074a7	0.08616
30	0xbf4301a1	-0.7617436
31	0xbe75d16c	-0.2400567
32	0x3d452bf8	0.048137635
33	0x3e8894d1	0.26676038
34	0x3eefb391	0.46816686
35	0xbe8fd52f	-0.28092334
36	0x3d12b3e5	0.035816092
37	0x3dfea074	0.12432948
38	0xbd025889	-0.031822715
39	0x3ecf5e8b	0.40501818
40	0xbe07d7b9	-0.13265885
41	0xbc52dadf	-0.012869566
42	0x3f046844	0.51721597
43	0xbf126787	-0.5718922
44	0xbc24f7c5	-0.0100688385
45	0x3c4ea268	0.012611963
46	0x3f23ef8a	0.6403738
47	0x3f066a3e	0.5250586
48	0x3e8309d1	0.25593427
49	0x3e5621c0	0.20911312
50	0x3f212c6b	0.629584
51	0xbeb9602a	-0.3620618
52	0x3e8b239c	0.27175605
53	0x3c934624	0.017977782
54	0x3e2b019a	0.1669983
55	0x3ef64e96	0.4810683
56	0x3d0ddec8	0.03463629
57	0xbe1d6e0e	-0.15374014
58	0xbf2bb267	-0.67069095
59	0x3e9e9e21	0.30980018
60	0xbe0d7272	-0.13813189
61	0xbdaebdcc	-0.08532295
62	0xbe9ba3cb	-0.30398402
63	0xbf2faa70	-0.6861944
64	0xbe2dde77	-0.16979395
65	0x3e4b7cea	0.1987187
66	0xbf2357ec	-0.63806033
67	0x3eb7d12e	0.3590178
68	0xbe390f84	-0.18072325
69	0x3d19cc0b	0.037548106
70	0xbe6b971b	-0.23006861
71	0xbf354b46	-0.70817983
72	0x3c1950e2	0.009357663
73	0xbd47a6ad	-0.04874294
74	0xbf4479af	-0.76748174
75	0x3ec56ea5	0.38560978
76	0xbe0d8856	-0.1382154
77	0x3cc81cae	0.024427738
78	0xbea487eb	-0.32134947
79	0xbf029d2e	-0.5102109
80	0x3e306d3c	0.1722917
81	0x3ea94276	0.33058518
82	0x3d1780fa	0.036988236
83	0x3e45e9d5	0.19327481
84	0x3ea0eb36	0.31429452
85	0x3e138a0d	0.14408131
86	0xbeb64ceb	-0.3560556
87	0xbc1b4d32	-0.009478854
88	0x3e83f9dc	0.25776565
89	0x3d2ac809	0.041694675
90	0xbeff35b2	-0.49845654
91	0x3ef2f254	0.47450507
92	0x3d390c74	0.04517789
93	0xbd1151e4	-0.035478488
94	0xbea7cbfe	-0.3277282
95	0xbecf4e23	-0.404893
96	0x3cab84e2	0.020937387
97	0xbe3c7789	-0.18404974
98	0x3f34ec03	0.70672625
99	0xbf0025b1	-0.5005751
100	0xbd8e2745	-0.06941084
101	0x3e2713d5	0.16316159
102	0x3ee233cb	0.4418014
103	0x3f06ed38	0.5270572
104	0x3e55c1fe	0.20874783
105	0x3ead51fd	0.33851615
106	0x3f26d106	0.65162694
107	0xbec971d3	-0.39344653
108	0xbc67beef	-0.014144643
109	0x3dd88e7f	0.10574054
110	0x3e20e259	0.15711345
111	0x3ef0aa63	0.47004995
112	0xbde468d6	-0.11152808
113	0xbe0c6775	-0.1371134
114	0xbf1a0b35	-0.6017335
115	0x3ed135d3	0.40861377
116	0xbea0afcf	-0.3138413
117	0xbe6b5284	-0.22980696
118	0xbe195e93	-0.14977483
119	0xbee6e943	-0.4509984
120	0xbdc0a885	-0.094071425
121	0xbe12c37a	-0.14332381
122	0xbee9796e	-0.45600456
123	0x3e8b4709	0.27202633
124	0xbe331bcd	-0.17491074
125	0xbe3ff4bc	-0.18745703
126	0xbe342f89	-0.17596258
127	0xbeb26862	-0.34845263
128	0x3c944a46	0.018101823
129	0xbd3acdc0	-0.045606375
130	0x3f4b6bca	0.7946135
131	0xbf127ae2	-0.57218754
132	0x3d342982	0.043984897
133	0xbdacb220	-0.08432412
134	0x3f32e017	0.69873184
135	0x3f1e76dc	0.61900115
136	0xbd94ebee	-0.072715625
137	0xbe2be02c	-0.16784734
138	0x3f2b5ae3	0.6693556
139	0xbee39d4d	-0.44455948
140	0x3c15c5c4	0.009141389
141	0x3c8c76fc	0.01714658
142	0x3f383246	0.7195171
143	0x3e9a2b2c	0.30111063
144	0x3df59e82	0.119931236
145	0xbd8522bc	-0.06500766
146	0xbf2cf213	-0.67556876
147	0x3ed1dad3	0.40987262
148	0xbdacf259	-0.08444662
149	0x3bc73947	0.006079826
150	0xbdfb4abb	-0.12270113
151	0xbf30c3c6	-0.69048727
152	0x3ec0308c	0.37537038
153	0x3e826f27	0.25475428
154	0x3d9a4c39	0.075340696
155	0x3dc31705	0.09525875
156	0x3e82f931	0.25580743
157	0x3ea2c4b3	0.31790695
158	0xbea29a50	-0.31758356
159	0x3b63395f	0.0034671647
160	0x3d9e11dc	0.0771825
161	0x3dcaf719	0.099104114
162	0xbf28cb2d	-0.6593502
163	0x3f04e4a7	0.51911396
164	0xbc197132	-0.009365367
165	0x3e002801	0.1251526
166	0xbe93ddd6	-0.28880185
167	0xbef6ec38	-0.48227096
168	0xbe3c0220	-0.18360186
169	0xbdb5615d	-0.08856461
170	0xbf01e7ef	-0.5074453
171	0x3dd91b9d	0.1060097
172	0xbda3db17	-0.080007724
173	0xbe989c39	-0.29806688
174	0xbb9d6f6d	-0.0048045428
175	0xbe9f23c0	-0.31081963
176	0x3db5c4f0	0.088754535
177	0x3e828f6f	0.25500056
178	0x3f0c9316	0.54911935
179	0xbe9b4e39	-0.30333117
180	0x3e59cf8f	0.21270584
181	0x3e020ada	0.12699452
182	0x3e8cde06	0.2751314
183	0x3f093b03	0.5360567
184	0x3d65e518	0.056126684
185	0x3d063d9b	0.032773595
186	0xbf1586ed	-0.58409005
187	0x3f1d514d	0.6145218
188	0x3e85879e	0.2608003
189	0x3e876680	0.2644539
190	0xbf39a096	-0.7251066
191	0xbef6af6b	-0.48180708
192	0x3e3476a7	0.17623387
193	0x3e25c80b	0.16189592
194	0x3e91a267	0.28444216
195	0xbe6e0fcf	-0.23248218
196	0x3e3030ee	0.17206165
197	0x3d5bc3a4	0.053653374
198	0x3e3aa236	0.18225941
199	0x3ec3d9a2	0.38251978
200	0x3ddd9e79	0.10821242
201	0x3e204401	0.15650941
202	0x3f5e8adc	0.8693063
203	0xbec8fb6d	-0.39254323
204	0x3e115c3f	0.14195345
205	0x3cb9ac86	0.022665273
206	0x3e9b5be0	0.30343533
207	0x3f2eb171	0.68239504
208	0xbd6388b8	-0.055550307
209	0x3c05bb51	0.0081623355
210	0xbf3cbda9	-0.737269
211	0x3ece7ed2	0.4033113
212	0xbd69ff07	-0.05712798
213	0xbd9e576c	-0.07731518
214	0xbeabe018	-0.33569407
215	0xbee6a422	-0.45047098
216	0xbdaaedd8	-0.08346146
217	0x3d7f9548	0.062398225
218	0xbf238bdf	-0.638853
219	0x3f14f8d0	0.5819216
220	0x3cc717ba	0.024303306
221	0x3d9750fe	0.07388495
222	0xbf12cd04	-0.5734408
223	0xbf25a875	-0.6471017
224	0x3e2eee97	0.17083202
225	0x3e86e91f	0.26349732
226	0xbe9077e8	-0.2821648
227	0x3eafdb0f	0.34346816
228	0x3de33404	0.110939056
229	0x3e0e6126	0.13904247
230	0xbf1e7a02	-0.6190492
231	0xbe46bcdd	-0.19407983
232	0x3e1d1dd5	0.15343411
233	0x3b897e0b	0.0041959337
234	0x3f1fcd77	0.6242289
235	0xbed54710	-0.4165578
236	0xbd4f42ae	-0.0506007
237	0x3bc7956a	0.0060908096
238	0x3e4ed628	0.20198882
239	0x3ef960bb	0.48706612
240	0xbc794797	-0.015214822
241	0x3e4076c2	0.18795303
242	0x3f31c41b	0.6943986
243	0xbf00f684	-0.50376153
244	0xbd84657a	-0.064646676
245	0x3e3bd298	0.18342054
246	0x3dd9df2b	0.10638269
247	0x3f0e0e2f	0.5549039
248	0xbc9768e7	-0.018482639
249	0xbe0f0c38	-0.13969505
250	0x3f4c9542	0.7991525
251	0xbf1158ca	-0.56776106
252	0x3dbc0b62	0.091818586
253	0xbcd367e4	-0.025806375
254	0x3f2bbd3f	0.6708564
255	0x3eec691a	0.46173936

0.bias f4 [128]
0	0x3e0b1693	0.1358283
1	0xbdc84385	-0.09778503
2	0xbdd2fb7c	-0.10301873
3	0x3db32e61	0.087490804
4	0x3df9fa7e	0.12205981
5	0xbd660237	-0.056154456
6	0x3d8b7403	0.06809237
7	0xbda2972f	-0.07938992
8	0xbccdde61	-0.025130453
9	0xbd1d07b8	-0.03833744
10	0x3e56e34c	0.20985144
11	0x3d57af9c	0.05265771
12	0xbcb3ef71	-0.02196476
13	0x3dedc8e2	0.11610581
14	0xbdc5d738	-0.0966019
15	0xbdf110be	-0.117707714
16	0xbcc4253d	-0.023943538
17	0xbb4a8afa	-0.003090559
18	0xbc34843d	-0.011017856
19	0x3e4b94a6	0.19880924
20	0x3db1e7a2	0.086867586
21	0xbde5605e	-0.11200021
22	0x3de53acc	0.11192855
23	0x3d6534e7	0.055958655
24	0x3dd73aba	0.10509248
25	0x3d65711c	0.056016073
26	0xbbf1e1a4	-0.007381635
27	0x3d415245	0.0471976
28	0x3e3e35f7	0.18575273
29	0xbbf4a66c	-0.007466128
30	0x3ce567fa	0.028003681
31	0xbd3a2340	-0.045443773
32	0x3df59d70	0.119929194
33	0xbe0e12c7	-0.1387435
34	0xbe061f25	-0.13097818
35	0xbd616b35	-0.05503388
36	0xbddf3ce1	-0.109002836
37	0x3d69f7bd	0.057121027
38	0xbd2f41b9	-0.042787287
39	0x3cd8e232	0.026475046
40	0x3d3f9751	0.046775166
41	0x3d82b3c0	0.06381941
42	0xbdf28952	-0.11842598
43	0xbe14015a	-0.1445364
44	0x3d97f7a4	0.074202806
45	0xbd5baa2c	-0.053629085
46	0x3da91e1c	0.08257696
47	0x3dbc620d	0.09198389
48	0x3c365949	0.011129686
49	0xbd9756ea	-0.073896244
50	0x3e012f18	0.12615621
51	0xbdcdf07d	-0.10055635
52	0xbd896fbf	-0.06710767
53	0xbdf47bdc	-0.11937687
54	0x3c6afd48	0.0143426135
55	0x3e00c9eb	0.12577026
56	0xbe62ff3b	-0.22167675
57	0xbe0a1ce7	-0.13487588
58	0x3dc50ea5	0.09621934
59	0xbbc34889	-0.0059595746
60	0x3db49d7d	0.08819101
61	0xbe0ff73a	-0.14059153
62	0xbd43fe98	-0.04785022
63	0xbcf0dc41	-0.0294019
64	0xbdbe6c19	-0.09297962
65	0xbddc977c	-0.10771081
66	0xbe3480a7	-0.17627202
67	0xbcfc200e	-0.030777004
68	0x3c9cf1a8	0.0191582
69	0x3abd6224	0.0014448804
70	0xbdc20610	-0.094738126
71	0xbdba52b8	-0.090978086
72	0x3da1ae33	0.07894554
73	0xbdb2dcd6	-0.08733527
74	0xbdc2d298	-0.09512824
75	0x3e199dec	0.15001649
76	0xbd52aab6	-0.051432334
77	0xbe09c6b5	-0.13454707
78	0xbdd19e2e	-0.102352485
79	0x3e08111f	0.13287781
80	0xbdf67f65	-0.12036017
81	0x3cbec894	0.023289002
82	0x3e12a492	0.14320591
83	0xbdc0c02a	-0.094116524
84	0x3e22f00b	0.15911882
85	0xbd1ab793	-0.037772726
86	0xbdb7ce67	-0.08974915
87	0xbdd34482	-0.10315801
88	0xbe1db720	-0.15401888
89	0xbd9e2729	-0.07722313
90	0x3c14fb14	0.009093065
91	0xbe0ce1e5	-0.13758047
92	0x3e1ea8f5	0.1549414
93	0xbaad99b8	-0.0013244664
94	0x3ea35eb5	0.31908193
95	0x3da46bad	0.0802835
96	0x3cc8f2c2	0.024529818
97	0x3cddc61d	0.027072007
98	0x3d9621aa	0.0733064
99	0xbdc5484c	-0.0963293
100	0xbe29f5fd	-0.16597743
101	0x3e162f6a	0.14666525
102	0x3cd7fbd1	0.026365193
103	0x3e2aa361	0.16663887
104	0xbde081d9	-0.109622665
105	0xbdde8d51	-0.10866798
106	0x3da86014	0.082214504
107	0x3c6c2d3f	0.014415084
108	0x3c15bb12	0.009138839
109	0x3e65c843	0.22439675
110	0x3dcc0251	0.09961379
111	0x3e0d0c79	0.13774289
112	0xbe1b10a3	-0.15143065
113	0xbde5da34	-0.112232596
114	0x3e6cb54b	0.23116033
115	0xbe352737	-0.1769074
116	0xbd980804	-0.07423404
117	0x3db4f4e4	0.08835772
118	0x3c4a3d05	0.01234365
119	0xbc9ebb78	-0.019376501
120	0x3de5cebe	0.112210736
121	0xbe797de7	-0.24364434
122	0x3cd19be2	0.025587026
123	0xbaef150d	-0.0018240527
124	0x3db6d56b	0.08927425
125	0x3def32e8	0.116796315
126	0xbe05600d	-0.13024922
127	0xbdb02996	-0.08601682

2.weight f4 [64, 128]
0	0xbd1a9ae0	-0.037745357
1	0x3d21dc97	0.03951701
2	0x3d32a4fa	0.043614365
3	0xbe39bd56	-0.18138632
4	0xbc929cb3	-0.017896986
5	0x3dafa88d	0.085770704
6	0xbe3b6f96	-0.18304285
7	0xbcae456e	-0.021273341
8	0xbd2e0ac6	-0.042490743
9	0x3bad423e	0.0052874377
10	0xbe493bcf	-0.19651721
11	0xbe41ca7a	-0.18924895
12	0xbdb53d9c	-0.08849642
13	0x3cc31a33	0.023816204
14	0x3e48c5bf	0.19606684
15	0x3c542a05	0.012949471
16	0x3c5d254a	0.01349766
17	0x3cd4447f	0.025911568
18	0xbd8c0a80	-0.0683794
19	0xbe7f410a	-0.24927154
20	0xbdb4022c	-0.08789477
21	0x3e5c880d	0.21536274
22	0xbd1d2765	-0.038367648
23	0x3b920efc	0.0044573527
24	0xbe28f470	-0.16499496
25	0x3d084e5a	0.033277847
26	0xbda500d3	-0.08056798
27	0xbe0c1027	-0.13678037
28	0xbe086442	-0.13319495
29	0x3e102926	0.14078197
30	0x3e377cee	0.1791875
31	0x3dab17ad	0.08354125
32	0x3d98e477	0.07465451
33	0x3e8b418f	0.27198455
34	0x3e1ce06e	0.15319988
35	0x3e142f67	0.14471208
36	0x3dd107fb	0.102066
37	0xbe7fc7dd	-0.24978586
38	0xbce4a6a5	-0.027911494
39	0xbdc5617e	-0.09637736
40	0x3d9ad6f5	0.07560531
41	0xbe3607b9	-0.17776383
42	0x3e336374	0.17518407
43	0x3e0559fc	0.13022608
44	0xbd8f0890	-0.06984055
45	0x3dadce78	0.084866464
46	0xbe83ac30	-0.25717306
47	0xbd1c49f6	-0.038156472
48	0xbbb2ce0d	-0.005456692
49	0xbd653cbd	-0.055966128
50	0xbe9ffb9c	-0.3124665
51	0xbce93031	-0.028465362
52	0xbd63b418	-0.055591673
53	0x3d695299	0.056963537
54	0xbd9bb27b	-0.07602402
55	0xbdd95374	-0.106116205
56	0x3dbecd1e	0.09316467
57	0x3d777ef2	0.0604238
58	0x3c9ed88d	0.019390369
59	0xbe72e2b3	-0.23719291
60	0xbd88c76e	-0.06678663
61	0x3dabb351	0.08383811
62	0xbe07f78d	-0.13278027
63	0x3cde9f37	0.027175529
64	0x3dbcf27a	0.09225936
65	0x3df12b01	0.117757805
66	0x3ec2cb09	0.3804553
67	0x3d8e1373	0.069373034
68	0xbd8c746f	-0.068581454
69	0x3d350489	0.04419378
70	0x3da3afef	0.07992541
71	0x3e4f0064	0.20214993
72	0x3e3b079a	0.18264619
73	0x3dc1ceff	0.094633095
74	0x3dc27e7b	0.094967805
75	0xbe72a854	-0.23697025
76	0xbca6e8b3	-0.020374632
77	0x3e8efc68	0.27926946
78	0x3cd4ee15	0.025992433
79	0xbd836a7a	-0.06416793
80	0x3e1c85a2	0.15285352
81	0xbc716543	-0.014733615
82	0xbe49b2fa	-0.1969718
83	0x3df9d9d7	0.12199753
84	0xbe66bc44	-0.22532755
85	0xbe0fd605	-0.14046486
86	0xbcf216b5	-0.029551843
87	0x3dc38734	0.09547272
88	0x3df56c15	0.11983506
89	0x3d882713	0.06648078
90	0x3c38353a	0.011243159
91	0x3dbf5aa4	0.0934346
92	0xbe0ac994	-0.13553458
93	0xbc0ffbc9	-0.008788058
94	0xbe1e8891	-0.15481783
95	0x3e16c3fb	0.14723198
96	0xbde95da0	-0.11394811
97	0xbd79f944	-0.061028734
98	0xbdf2baa8	-0.11852008
99	0x3d87d7ff	0.06632995
100	0x3e82872c	0.25493753
101	0xbe04a54e	-0.12953684
102	0x3d968f1e	0.07351516
103	0xbe7ad80e	-0.24496481
104	0x3e3627b8	0.17788589
105	0x3e09d1da	0.13458958
106	0xbd803d32	-0.06261672
107	0x3d0ba163	0.034089457
108	0xbdcc1f38	-0.09966892
109	0xbe9da698	-0.30791163
110	0xbe8a2eb3	-0.26988754
111	0xbe4acc69	-0.19804539
112	0x3e00b4da	0.1256899
113	0xbd85cc97	-0.06533163
114	0xbe04848b	-0.12941186
115	0x3d826931	0.0636772
116	0x3db420c9	0.08795316
117	0xbd7cfa74	-0.06176229
118	0xbd435d70	-0.04769653
119	0x3ceabe28	0.028655127
120	0x3dc1ea03	0.09468462
121	0x3e5e2706	0.21694574
122	0x3cf6fa8d	0.030148769
123	0xbe1c756e	-0.15279171
124	0xbda671aa	-0.081271484
125	0xbdf0b23d	-0.11752746
126	0x3ddb2113	0.10699668
127	0x3afefa8a	0.0019453329
128	0xbc8bcb8d	-0.017064834
129	0xbe138d22	-0.14409307
130	0xbe52f4c9	-0.2060119
131	0xbe00ef00	-0.12591171
132	0x3ea696a3	0.32536802
133	0x3d8460fe	0.06463812
134	0x3e55b262	0.20868829
135	0xbea6c9fe	-0.32575983
136	0xbdffd417	-0.12491625
137	0xbe2a4042	-0.16626075
138	0xbd616d9e	-0.05503618
139	0xbddd5b98	-0.10808486
140	0x3dada21b	0.08478185
141	0x3d455a9b	0.04818211
142	0xbdc83f6d	-0.097777225
143	0xbe46f932	-0.19430998
144	0x3d82ad63	0.06380727
145	0x3df74385	0.12073425
146	0xbea4a61d	-0.32157984
147	0x3c203893	0.009779113
148	0x3ccccb0c	0.024999164
149	0xbb7f158f	-0.0038922762
150	0x3d8ace32	0.0677761
151	0xbdcd7b81	-0.10033322
152	0x3db1a9e4	0.08674982
153	0x3e5f810f	0.21826576
154	0xbe13f8fa	-0.14450446
155	0xbe049473	-0.12947254
156	0xbde88a55	-0.1135451
157	0x3edea819	0.43487623
158	0x3e3ee105	0.18640526
159	0x3dd6e6a0	0.10493207
160	0x3e209f74	0.15685827
161	0x3c84d637	0.016215427
162	0xbe135e92	-0.14391544
163	0xbd407f51	-0.04699642
164	0xbdde8ab6	-0.10866301
165	0xbc9ca63b	-0.019122234
166	0xbeb19a14	-0.34687865
167	0xbdeab3b1	-0.11460055
168	0x3dc0040a	0.093757704
169	0x3c4b760a	0.012418279
170	0xbd7ddebc	-0.061979994
171	0xbce7e428	-0.028307036
172	0x3e980b1f	0.29695985
173	0x3dd1605b	0.102234565
174	0x3db25e8c	0.0870944
175	0x3d9797e0	0.07402015
176	0x3e66e7bd	0.22549339
177	0xbe908060	-0.28222942
178	0x3e8ec866	0.27887267
179	0xbe63d03c	-0.22247404
180	0xbe2e3b9d	-0.17014928
181	0xbdaa7b90	-0.08324349
182	0x3d0821ba	0.03323529
183	0x3eaf1f0d	0.34203377
184	0xbdb8791b	-0.09007474
185	0x3b534ed0	0.003224302
186	0x3e3b02c4	0.18262774
187	0xbe8e8e26	-0.27842826
188	0x3e8b48f1	0.27204087
189	0x3daa5aaa	0.08318074
190	0x3e0e0b74	0.13871557
191	0x3dbc0508	0.09180647
192	0xbe247b97	-0.16062771
193	0xbdcd01c5	-0.10010103
194	0xbd1c63c0	-0.038181067
195	0x3dc8ee38	0.098110616
196	0x3e37923e	0.1792688
197	0x3e0724d2	0.1319764
198	0xbd5153e0	-0.05110538
199	0xbe5e64ab	-0.2171809
200	0x3ec1a4eb	0.37821135
201	0xbcf8a14a	-0.030350346
202	0xbe0d1a51	-0.1377957
203	0x3cea27c8	0.028583422
204	0x3d5eaf5a	0.054366447
205	0xbcf2bf4d	-0.029632235
206	0xbe1e1aeb	-0.15439956
207	0x3dbec9d9	0.09315843
208	0xbe7fd22f	-0.24982522
209	0x3e0a6aba	0.13517275
210	0x3db2b574	0.08726016
211	0xbdf644ac	-0.12024817
212	0xbe446355	-0.19178517
213	0xbe493141	-0.19647695
214	0xbd05cf9f	-0.032668706
215	0xbd3f0af9	-0.046641324
216	0xbe6954cd	-0.22786255
217	0xbe54f012	-0.20794705
218	0xbf02b75b	-0.5106103
219	0xbdddc62b	-0.10828813
220	0xbd185ca5	-0.037197728
221	0xbdf23af3	-0.1182765
222	0xbd0181fa	-0.031618096
223	0x3e8275c4	0.25480473
224	0xbd012dbb	-0.031537753
225	0x3db40c6a	0.0879143
226	0x3e37651b	0.17909662
227	0xbe9a6a55	-0.3015925
228	0x3dc84b31	0.097799666
229	0xbc9eefb0	-0.019401401
230	0x3d3a8656	0.04553827
231	0xbe2816a1	-0.16414882
232	0xbd83645a	-0.06415625
233	0xbeb63fd5	-0.35595575
234	0x3e9c2c01	0.30502322
235	0xbe5238ed	-0.20529528
236	0xbde67e6f	-0.11254584
237	0xbda9ce1f	-0.082912676
238	0x3e0db664	0.13839108
239	0x3c28d8f1	0.010305629
240	0x3e055d76	0.13023934
241	0xbdf0fc4d	-0.117668726
242	0xbd4ed292	-0.050493784
243	0x3d0d04e7	0.034428503
244	0xbd4e31d2	-0.05034048
245	0x3d8ad24c	0.06778392
246	0xbe8b7e35	-0.27244726
247	0x3e3f9ba5	0.18711717
248	0x3deb7c43	0.114983104
249	0xbe276f96	-0.1635116
250	0x3e2f577a	0.17123213
251	0x3dac9b80	0.08428097
252	0x3d6a08ae	0.057137184
253	0xbcb56f02	-0.02214766
254	0x3d615037	0.05500814
255	0xbe831d6c	-0.25608385

2.bias f4 [64]
0	0xbdcd26da	-0.10017176
1	0x3c50059f	0.012696653
2	0xbdd64945	-0.10463194
3	0xbad281e1	-0.0016060435
4	0x3c6febdb	0.014643635
5	0xbe174dc5	-0.1477576
6	0xbd31c21e	-0.043398015
7	0x3b9aee6e	0.00472813
8	0x3d8ce2fd	0.06879232
9	0x3d00e88f	0.031471785
10	0xbcdae8fe	-0.026722427
11	0x39fd3da5	0.0004830185
12	0x3d193d95	0.037412245
13	0xbd772a0e	-0.06034284
14	0xbdfeffd6	-0.124511406
15	0xbd87a064	-0.06622389
16	0x3dae5a71	0.08513344
17	0x3d885ddd	0.06658528
18	0x3db7edd7	0.08980911
19	0xbcf5b310	-0.02999261
20	0xbcc44088	-0.023956552
21	0xbdd03c1a	-0.101677135
22	0xbdd0302a	-0.101654366
23	0x3d0b9e36	0.03408643
24	0x3cf239d7	0.029568596
25	0x3e109d33	0.14122467
26	0x3dd44d7e	0.10366343
27	0xbda26aa6	-0.07930498
28	0xbe1e02a4	-0.15430695
29	0x3ce10234	0.02746687
30	0x3d201485	0.03908207
31	0xbdeb2789	-0.1148215
32	0xbe05d70d	-0.13070317
33	0xbe0d4bb8	-0.13798416
34	0x3dba5ae3	0.090993665
35	0x3df03caa	0.11730321
36	0xbde9a2f9	-0.11408038
37	0xbc082128	-0.008308686
38	0x3dc89314	0.09793678
39	0x3db59129	0.08865578
40	0x3c4ccf34	0.012500573
41	0x3da8fcda	0.082513526
42	0x3d13cdfd	0.036085118
43	0x3dd76690	0.10517609
44	0x3dc27bf2	0.09496297
45	0xbdecca1f	-0.11561989
46	0xbca0c2a4	-0.019624062
47	0x3d7bb849	0.061455045
48	0xbdb1af2b	-0.08675989
49	0x3dccda49	0.10002572
50	0xbdabab0f	-0.08382236
51	0xbddbc750	-0.10731375
52	0xbbfb1c7c	-0.0076633077
53	0x3e096958	0.13419092
54	0x3df1e4da	0.11811228
55	0x3bc428f8	0.005986329
56	0xbdb8b350	-0.09018576
57	0xbd861a38	-0.065479696
58	0x3cdaa0f9	0.026688086
59	0xbdc8e221	-0.09808756
60	0x3cb0c6c4	0.021579154
61	0x3d9f2ce7	0.07772236
62	0xbd084149	-0.033265386
63	0xbde99a38	-0.11406368

4.weight f4 [1, 64]
0	0xbf1e2f1f	-0.6179065
1	0x3e8fb176	0.2806508
2	0xbf21a7e1	-0.6314679
3	0x3e91ecfe	0.28501123
4	0xbf3c65d1	-0.7359286
5	0xbec1ac59	-0.37826803
6	0xbdca2fa6	-0.098723695
7	0x3f295313	0.66142386
8	0x3e90ff0b	0.28319582
9	0x3d8db870	0.06919944
10	0xbf2a1ce2	-0.6645032
11	0x3e917bc7	0.28414747
12	0x3e924c80	0.2857399
13	0x3f33686b	0.70081204
14	0xbeb5edf9	-0.3553312
15	0x3f0b1462	0.54327977
16	0x3ea20ee5	0.3165199
17	0x3e06e0d7	0.13171707
18	0x3f3dcecc	0.7414367
19	0xbe3b26c0	-0.182765
20	0x3f20717a	0.6267315
21	0xbf2fa75f	-0.68614763
22	0xbf1ff030	-0.6247587
23	0xbf444efe	-0.7668303
24	0x3e90e055	0.28296152
25	0x3eaf294e	0.342112
26	0x3f25cf32	0.6476928
27	0xbf5e3478	-0.8679881
28	0xbee27cf7	-0.44235966
29	0x3e996a75	0.29964033
30	0x3f190ff5	0.59789973
31	0xbf1543ba	-0.5830647
32	0xbf08c3aa	-0.5342356
33	0xbe97a5e4	-0.29618752
34	0x3eb2f170	0.34949827
35	0x3ef80164	0.4843856
36	0xbf206355	-0.6265157
37	0xbe949aea	-0.2902444
38	0x3f2b134c	0.6682632
39	0x3f69bea6	0.9130653
40	0x3e911c63	0.2834197
41	0x3e6eddf3	0.23326854
42	0x3e89acb4	0.26889575
43	0x3f174b77	0.59099525
44	0x3ea9f7b5	0.33196798
45	0xbf10e19e	-0.56594265
46	0xbe8c2ec7	-0.27379438
47	0x3e8b69c1	0.2722912
48	0x3f33cc77	0.70233864
49	0x3f30481f	0.6886005
50	0xbe8d8430	-0.27639914
51	0xbf16f97d	-0.5897444
52	0xbe9354c2	-0.28775603
53	0x3ea5ab8d	0.32357445
54	0x3f1bed4c	0.6090896
55	0xbf34fccc	-0.7069824
56	0xbf3cd00d	-0.7375496
57	0x3f2eb699	0.6824737
58	0x3e8cd4fd	0.27506247
59	0xbf34ebdd	-0.706724
60	0x3e7b3063	0.24530177
61	0xbf1be6b7	-0.6089892
62	0x3f41b97e	0.75673664
63	0x3f1f7ee3	0.6230299
